outputs/u_network.0.pth (torch, 13304 bytes, 10 tensors)

_impl.layers.0.linear.weight f4 [32, 1]
000000 e5 5e af 3c 99 97 ad 3e 9c f3 83 be 6c db 76 3e
       0.021407554 0.33904722 -0.25771797 0.2410714
000010 21 12 91 be c4 1f a2 3e 46 0e 7e be 24 3a 31 3d
       -0.28334144 0.3166486 -0.24810132 0.043268338
000020 f9 99 f8 3d 15 9a 20 3e 06 9c 79 3e a0 08 02 3e
       0.12138743 0.15683778 0.24375924 0.12698603
000030 53 dd 2d be 83 05 53 3e 97 9e d1 3e 6f 43 61 3e
       -0.1697896 0.20607571 0.40941307 0.2199838
000040 83 63 2d 3e 5d a4 c8 3e eb ba ad bc 5c b0 82 be
       0.16932492 0.391879 -0.021207293 -0.25525177
000050 a3 21 79 3d e7 d6 9d be e4 ca c9 bd cb 24 a8 be
       0.060823094 -0.3082802 -0.098531514 -0.3284057
000060 ed fe ae bd af f7 8a 3e f7 46 ca be 61 04 c6 3e
       -0.08544717 0.27142093 -0.39507267 0.38675216
000070 3c c3 69 be 61 87 60 3e 23 b3 88 be 70 1f 7e 3e
       -0.22828382 0.21926643 -0.2669917 0.2481668

_impl.layers.0.linear.weight_g f4 [32, 1]
000000 2f 04 80 3f 8f 65 7f 3f 64 4d 79 3f 83 9a 7c 3f
       1.0001277 0.9976434 0.97383714 0.98673266
000010 50 d7 78 3f d8 a5 7f 3f 99 9e 85 3f ca 99 80 3f
       0.9720354 0.9986243 1.0439025 1.0046933
000020 23 a5 80 3f e7 60 80 3f 93 8a 7e 3f af ab 80 3f
       1.0050396 1.0029572 0.994302 1.0052394
000030 ff 6d 84 3f e3 e9 7d 3f d0 e6 7f 3f d9 e9 7a 3f
       1.0346068 0.9918501 0.99961567 0.98013073
000040 3d ac 80 3f 90 30 79 3f 91 70 7b 3f 05 c9 7d 3f
       1.0052563 0.97339725 0.9821864 0.99134856
000050 bc be 79 3f 4e a4 7a 3f c7 0d 75 3f 03 50 85 3f
       0.9755666 0.9790696 0.9572415 1.0415043
000060 46 d8 7d 3f 64 fa 7a 3f 76 a7 86 3f 59 40 81 3f
       0.9915813 0.98038316 1.0519855 1.0097762
000070 f4 1b 87 3f f5 89 7b 3f 77 ea 84 3f be 11 83 3f
       1.0555406 0.9825738 1.0384053 1.023979

_impl.layers.0.linear.bias f4 [32]
000000 03 4a 04 bb c6 57 d3 39 dd 0c d7 bc 6e e0 e7 bc
       -0.0020185716 0.00040310452 -0.02625125 -0.028305259
000010 b0 b0 e2 bc 02 4b d8 bc 06 8b cf 3c e4 94 ce bc
       -0.027672142 -0.026402954 0.025334846 -0.025217481
000020 fe 96 8a bb 7d 81 22 bd d8 2e 41 3c e7 96 a0 3a
       -0.0042294255 -0.03967427 0.011790954 0.0012252004
000030 3f 7f 48 3c a3 e0 5c bc 82 10 5e ba 05 79 94 3b
       0.012237369 -0.013481292 -0.0008471088 0.004531028
000040 51 ba c7 bc 9d 9d aa bc f3 6b 0c bd 77 99 d1 bb
       -0.024380835 -0.020827109 -0.034282636 -0.0063964683
000050 20 e1 20 3c 54 18 bb bc 3b ab 94 bc 69 b2 07 3d
       0.009819299 -0.022838749 -0.018148055 0.03312913
000060 65 24 1d bc de 34 53 bc 60 f4 bd 3c b9 b5 35 3c
       -0.009591197 -0.0128910225 0.023187816 0.011090689
000070 ce 6c ae 3c e3 3c 91 3c b5 ca b2 3c 6c 05 7a bc
       0.021292116 0.017729228 0.021825174 -0.015260082

_impl.layers.1.linear.weight f4 [32, 32]
000000 a6 f3 66 bd 63 7d 7b be 92 a2 76 be a7 72 8c 3e
       -0.056384705 -0.2455955 -0.24085453 0.27431223
000010 af 65 19 be d7 3a 3c 3e 53 8c 90 be aa 28 91 bc
       -0.14980195 0.1838182 -0.2823206 -0.017719585
000020 d1 c5 8c 3e c2 3a 88 be 5b fa 25 3d 0e c2 30 3e
       0.27494672 -0.2660733 0.04052196 0.17261526
000030 01 96 c5 bd 72 a3 e0 3d 0a 8e 8b 3e 38 d6 95 bd
       -0.096477516 0.10968675 0.27256805 -0.073162496
000040 ba 17 1c 3e cf 75 a4 bc f9 9a b3 3d d1 69 6f 3e
       0.15243426 -0.020075707 0.08769793 0.2338021
000050 43 e5 15 3e 88 7a e2 3d 69 21 ea bd 7f 0a 22 be
       0.14638238 0.11058527 -0.11432154 -0.15824316
000060 06 dc 17 be 9f de f6 3d 27 c2 99 3d 2f 41 15 bd
       -0.14830026 0.1205418 0.07507735 -0.036439117
000070 49 f7 db bb 65 ae 68 bd 81 29 62 3d 8d 32 a7 bd
       -0.0067128283 -0.05680694 0.055215362 -0.08163939
000080 f2 4b 68 3e eb c1 99 be 62 eb c5 3d 0a 6b f5 3d
       0.22685221 -0.3003076 0.09664036 0.11983307
000090 77 be 2b bd 38 b3 62 3e 78 9c c3 bd c9 6f 13 3d
       -0.04192969 0.22138679 -0.095513284 0.03599528
0000a0 d0 1c 0f 3d 64 80 7b b9 4d 91 92 bd 65 1a 29 3e
       0.034939587 -0.00023985055 -0.0715662 0.16513975
0000b0 e7 1a a4 be f1 b1 8a 3d f3 0c 7f 3d 1a 9b 74 be
       -0.32051775 0.06772221 0.06226821 -0.23887292
0000c0 31 30 7f 3d 42 8e e1 bd 99 a9 29 be 45 c0 03 be
       0.06230182 -0.11013462 -0.16568603 -0.12866314
0000d0 6f d3 d9 3d ae 8c 7f 3e b0 9f 26 3e 6a dd 6a be
       0.10636031 0.24956009 0.16271853 -0.22936025
0000e0 a1 9c 81 3e 23 71 5c bd b3 c1 8c 3d 32 88 e0 bd
       0.2531481 -0.053818833 0.06872883 -0.10963477
0000f0 00 28 f1 3c 2e da 6d be 46 95 2a bd 2e ef 42 be
       0.029438019 -0.2322776 -0.041646264 -0.19036552
000100 34 bb 3b be da c7 f6 3d df fb 03 3e aa f7 b5 bd
       -0.18333131 0.120498374 0.1288905 -0.08885129
000110 8d 36 ec 3d 9c c0 59 3e 9f 75 20 3d f4 69 50 3d
       0.11533842 0.21264881 0.039174672 0.050882295
000120 32 4f 23 3d 44 00 22 bd 47 30 88 3d 64 bc 24 3e
       0.03987045 -0.039551035 0.06649833 0.1608749
000130 7e 01 8b 3e b4 1e 17 3e af 69 92 be 8e 35 94 3d
       0.27149576 0.14757806 -0.28596255 0.07236777
000140 da ba 91 be 65 59 76 3b 4b 72 5c 3e 5f 21 95 be
       -0.2846287 0.0037589904 0.21527974 -0.29127023
000150 9d 5a 84 3e aa 29 49 3e e3 4e c3 bd 54 5b 99 bd
       0.25850382 0.196448 -0.09536531 -0.074881226
000160 01 a3 5f be 52 d5 14 3d 14 ad bc 3d b1 0a e5 3d
       -0.21839525 0.03633625 0.092126995 0.1118368
000170 c5 78 5c 3d 9a 9b e1 bc 72 b9 3e be cd 62 8f be
       0.053826112 -0.027540017 -0.1862543 -0.28005067
000180 c5 bb 64 3d 5b 3c f9 bd 28 02 61 3e 74 e2 3b bd
       0.055843133 -0.12169715 0.21973479 -0.04587026
000190 2f 00 d7 3c e7 f3 91 3e 21 07 c7 3d 5f f7 43 3e
       0.026245205 0.28506395 0.097181566 0.19137333
0001a0 46 1b 0b be af cb c1 bc bd 9c 4f be 9b f9 0b 3e
       -0.13584623 -0.023656694 -0.20274635 0.13669436
0001b0 4d a0 2e be bb 94 66 be d0 f2 96 be c6 fc 87 3e
       -0.17053337 -0.22517674 -0.29482126 0.26560038
0001c0 e3 ed 54 3e 3e 82 ff bd 1f 8e 7f 3e bc e0 66 3d
       0.20793872 -0.124760136 0.24956559 0.056366667
0001d0 48 9b 19 3e ca 6b 98 be 6d be 01 bd e7 9e 9e be
       0.15000641 -0.29769737 -0.031675745 -0.30980608
0001e0 aa 38 8b 3d f9 42 89 3e 1e 4c 9f 3d 9e 26 95 be
       0.06797917 0.2680891 0.0777819 -0.29131025
0001f0 5f 1a a0 be c2 27 17 be 90 26 08 bd e6 40 8f 3c
       -0.3127012 -0.1476126 -0.0332399 0.017487
000200 d0 05 3d bd 11 69 1e be d2 76 13 be 2c 54 87 3e
       -0.04614812 -0.15469767 -0.14400795 0.26431406
000210 64 23 48 3e aa 85 ea 3d 14 2a f3 3d 2f 69 3c 3e
       0.1954475 0.11451276 0.1187326 0.183995
000220 83 bf 52 3e 52 bd 4e 3e 96 12 3c be b6 33 25 3e
       0.20580868 0.20189407 -0.18366465 0.16133007
000230 92 6d f3 bd 59 fc fe 3d 44 3d 2d 3e 54 8a 1f 3e
       -0.11886133 0.12450475 0.16917902 0.15580112
000240 99 f2 91 be ed 91 0c 3e 44 ca 5e 3e 3a d9 04 3e
       -0.285054 0.13727541 0.21756846 0.1297349
000250 71 00 45 3e 9c 39 a4 3d 91 97 83 3d 6b fa 28 3e
       0.1923845 0.080188006 0.064253934 0.16501777
000260 5f 69 35 3c 28 9c 4e 3d a0 c6 36 3e 1e fa 11 be
       0.011072486 0.05044189 0.17849207 -0.14255568
000270 e3 9b 34 3e 60 9a c9 bd ed bf 5a 3e cf 02 65 be
       0.17637591 -0.09843898 0.21362276 -0.22364353
000280 da 72 eb 3d 55 8a 59 3e 20 de 71 bd 5c bf 95 be
       0.114965156 0.21244176 -0.059049726 -0.29247558
000290 6c b4 73 bd 56 40 87 3e 0e f0 3d be f2 ed 3b bd
       -0.059498236 0.26416272 -0.18548605 -0.04588122
0002a0 c0 b0 07 3e 93 e1 68 3e 2b b7 7f bd 91 47 89 3d
       0.13251019 0.227423 -0.062430542 0.06703103
0002b0 5d 40 12 bd ec f9 07 3d 42 f6 61 be 79 0a a4 bd
       -0.035705913 0.03319733 -0.22066596 -0.0800981
0002c0 2c 9f 75 3e b5 72 b2 bd c2 38 1f 3e a0 ed 87 3e
       0.239865 -0.08713285 0.15548995 0.2654848
0002d0 a4 91 7c be 22 d7 81 3e d6 50 2a be 30 4b 4b 3d
       -0.24664932 0.25359446 -0.16632399 0.04963225
0002e0 69 a5 3b 3e 1d 3a 78 3e a3 07 f8 3d 19 4d 1a be
       0.18324818 0.24240918 0.121108316 -0.15068473
0002f0 a1 a2 77 be 89 39 15 3e 7e ed 33 3e e1 65 44 be
       -0.24183132 0.14572729 0.17571065 -0.19179489
000300 fd da 6e be b6 e4 30 be 3c 96 1d 3e 30 45 ef 3d
       -0.23325725 -0.17274746 0.15389341 0.11683118
000310 56 04 70 be 23 58 91 3d 4b 61 ad 3e ac 33 29 be
       -0.23439154 0.07096889 0.3386329 -0.16523618
000320 ca 69 a3 3d b2 48 3b 3e 79 ca c7 3a 73 65 d6 bd
       0.07979162 0.1828945 0.0015242837 -0.10468569
000330 42 4b 1e bd 73 6e 40 3e 81 ad 87 be df 9c 80 bd
       -0.03864599 0.18792133 -0.2649956 -0.06279921
000340 b6 a6 27 3e 37 cd 3c be 60 a7 62 3e 9e 90 0a 3d
       0.16372189 -0.18437658 0.22134161 0.033829324
000350 da f9 8a be 24 3d 92 3d eb 8a 42 be d1 1a a6 3e
       -0.27143747 0.07140568 -0.18998305 0.32442334
000360 85 d8 80 3c 79 33 24 bd 19 42 9b 3e f8 f4 ab bd
       0.015728245 -0.04008815 0.30323866 -0.083963335
000370 a3 ec ba 3d 39 fc a6 bd 83 80 a0 3c 3c 60 8b 3d
       0.09127166 -0.081535764 0.01959253 0.068054646
000380 b3 b9 99 bd 8d f0 8b bd 59 35 5a 3e 4a 89 a1 bd
       -0.075061224 -0.06832991 0.21309413 -0.07887514
000390 7a b0 66 be bb 1b 86 be 1c 9e 89 bd e1 ca 98 bc
       -0.22528258 -0.26193032 -0.0671961 -0.018651428
0003a0 c0 df 5a be f8 a3 79 be 28 cc 90 3e 38 8a f1 3d
       -0.21374416 -0.24378955 0.2828076 0.11793941
0003b0 b4 b7 63 3e 16 9d 17 be 65 8c dd bc 3d 53 b1 3d
       0.22238046 -0.14806017 -0.027044484 0.086584546
0003c0 c6 89 91 3e 4d 92 cc 3d f3 ef 89 3e d0 85 29 3e
       0.28425425 0.09988842 0.2694088 0.16554952
0003d0 aa b3 9c 3c bb ea d0 3d 64 5a 3a 3d 3a c2 ea bc
       0.01912864 0.10201021 0.04549636 -0.028657068
0003e0 08 c4 75 3e 53 0b 1c be 30 13 84 3e 9a bf e2 3b
       0.24000561 -0.15238695 0.2579589 0.0069198133
0003f0 d4 4f 90 be d1 a8 c0 3d 54 d1 ad 3d e0 17 3e 3e
       -0.28185904 0.09407199 0.08487192 0.18563795

_impl.layers.1.linear.weight_g f4 [32, 1]
000000 40 f7 78 3f ed ec 7a 3f bc ae 7a 3f d8 bb 7d 3f
       0.97252274 0.9801777 0.97922873 0.9911475
000010 8f 0b 80 3f 00 2c 79 3f 4b 5d 83 3f cd 60 7a 3f
       1.0003527 0.97332764 1.0262846 0.97803956
000020 52 ac 86 3f ec 01 7b 3f 9a fc 80 3f 5b 6b 7c 3f
       1.0521338 0.9804981 1.0077088 0.9860131
000030 dd 58 7b 3f f2 29 86 3f a4 bd 7b 3f 32 ca 7a 3f
       0.9818247 1.0481551 0.98336244 0.97964776
000040 93 b6 80 3f ac 9a 7c 3f 65 b6 80 3f 0b 65 83 3f
       1.0055717 0.9867351 1.0055662 1.0265211
000050 a3 a5 7c 3f 90 88 82 3f c1 10 81 3f 99 67 7c 3f
       0.9869024 1.0197926 1.0083238 0.9859558
000060 e5 b9 80 3f 09 d1 7e 3f 72 c3 7b 3f fe c7 7f 3f
       1.005673 0.9953771 0.983451 0.9991454
000070 24 0d 80 3f ad 73 82 3f 11 3c 76 3f 57 c2 83 3f
       1.000401 1.0191551 0.96185404 1.0293683

_impl.layers.1.linear.bias f4 [32]
000000 f7 28 8d 3b 8d 6b 5c 3b 75 9d 34 3d c3 9c 48 3c
       0.004307862 0.0033633441 0.044095475 0.012244406
000010 9e 04 84 bc 10 65 dc bc 69 4a b1 3c 76 28 a9 bc
       -0.016115483 -0.02690366 0.021641927 -0.020649176
000020 d6 b2 ab 3c 0e 72 d0 bb 5a 62 ca 3b 29 c2 f4 3b
       0.020959299 -0.0063612526 0.006176275 0.0074694348
000030 38 e3 e4 3b e3 d1 f1 3c 5a 4b eb ba f2 5f 27 bd
       0.0069850944 0.029519027 -0.0017951534 -0.040862985
000040 a0 2c 91 bc 2b 15 50 bc 4c e9 f5 3b 65 13 84 bc
       -0.017721474 -0.012700359 0.007504618 -0.01612253
000050 5a cf 7f 3b b8 a7 8e 3b e1 a3 fa bb 46 72 a3 3c
       0.0039033503 0.0043534897 -0.0076489304 0.01995195
000060 bf c1 64 bc 02 5e 24 bc 12 fc 0d 3c bf cf 40 3c
       -0.013962208 -0.010032179 0.008666055 0.0117682805
000070 0d f3 0c 3d 30 9f dc bb c4 4e 76 3c b5 b2 ba 3a
       0.03441148 -0.006732844 0.015033428 0.0014243933

_impl.layers.2.linear.weight f4 [32, 32]
000000 b6 c3 db bd 54 bc db bd 01 b2 b9 3c d7 39 80 be
       -0.10730688 -0.1072928 0.022667887 -0.25044128
000010 5c 10 0c 3e 48 80 ea bd 32 d2 7d be 06 f1 53 be
       0.13678116 -0.11450249 -0.24787214 -0.20697412
000020 bd 79 86 3e 17 2b 86 3c 6e 4c 94 3d 19 bd 4a be
       0.26264754 0.016377969 0.0724114 -0.19798698
000030 e0 f9 e2 bc 7c c0 dd 3d 7f 3a a1 3c 40 5c 8e be
       -0.02770704 0.10827729 0.019681213 -0.27804756
000040 6a c3 84 3e 10 82 9f bb 68 4e 64 3e 2e 01 43 3e
       0.2593034 -0.0048677996 0.22295535 0.19043419
000050 35 08 6e 3d 99 62 9a 3e 1d 2b 81 3d f0 1d 81 bd
       0.058113296 0.3015335 0.06307051 -0.06304538
000060 29 35 cb bd c5 81 84 be a0 68 e0 bd 90 dd 7b 3e
       -0.09922249 -0.25880256 -0.10957456 0.24596238
000070 ec ab 59 bc bf d0 1c 3e 63 db 86 be 12 d8 7f 3e
       -0.013285618 0.15314005 -0.26339254 0.24984768
000080 ab 7d 97 3d db 45 5e 3e a5 aa a3 3e 26 b9 8e 3e
       0.07397016 0.21706335 0.3196613 0.27875632
000090 bd d4 91 3e fd a6 73 be 82 d6 8f be f3 41 97 3e
       0.2848262 -0.2379417 -0.28093344 0.29542503
0000a0 b7 40 e5 bc 4b 87 95 be 1a a5 74 3d d7 42 1f be
       -0.02798496 -0.29204783 0.059727766 -0.15552841
0000b0 16 dd 8e be 77 bd 8c be 84 a8 91 3e 7a a2 7c be
       -0.2790305 -0.274883 0.2844888 -0.24671355
0000c0 e8 10 bc bd 13 04 89 be 65 65 71 3e 96 85 5c 3e
       -0.09182912 -0.2676092 0.23573835 0.21535334
0000d0 56 50 55 3e db c5 80 3e b8 09 8b 3c 7b 1b 8c 3e
       0.20831427 0.25150952 0.016972408 0.27364716
0000e0 31 e5 38 3e 4f 14 9f 3e cf 08 84 be 0d 36 cd 3d
       0.1805618 0.31070182 -0.2578797 0.10020075
0000f0 8f 3e 7b be f8 b8 61 be 7d d5 37 be f5 6e 75 be
       -0.24535583 -0.22043216 -0.17952533 -0.23968108
000100 a8 8e 7b be 7b 46 a4 bc 6b 1c 10 3e bb af dc bd
       -0.24566138 -0.020053139 0.1407334 -0.107757054
000110 38 3f aa 3d e5 a8 14 3d f7 ee 88 3e f9 26 93 be
       0.08312839 0.036293883 0.26744816 -0.2874067
000120 2f c4 96 be ad e3 8d bd d6 68 d4 bc f4 37 72 be
       -0.2944655 -0.06928191 -0.025928896 -0.23654157
000130 7d 79 74 3e e6 10 b0 bd 4b 6e 60 3e e2 ed 40 3e
       0.23874469 -0.08596973 0.21917073 0.18840745
000140 c1 56 5b be e2 10 44 3e 13 06 9d 3c ee 92 40 be
       -0.21419813 0.19147065 0.019167935 -0.18806049
000150 a1 64 86 3e e7 12 91 be 9e db 83 be 0d e8 5b bd
       0.2624865 -0.28334734 -0.25753492 -0.053688098
000160 1d 34 8a be 9d 8a 3f 3e df 7e 89 3e 4a 6a 19 be
       -0.26992884 0.1870522 0.26854607 -0.14981952
000170 16 0e 83 be 05 01 da 3d 93 75 1a be 29 f7 c8 3d
       -0.25596684 0.10644726 -0.15083914 0.09812767
000180 ce e4 23 bd 42 f2 8c 3e 3d dd f0 bd f9 cf 6c 3e
       -0.040013127 0.27528578 -0.11760948 0.2312621
000190 6b 6b 20 3e 48 f8 46 be 01 c5 97 be 58 df 2c be
       0.15665977 -0.1943065 -0.2964249 -0.16882074
0001a0 c9 cd a6 bb 10 3b 30 be e1 ba 4b bc 41 7f c8 3d
       -0.0050904495 -0.1721003 -0.012434692 0.09789897
0001b0 8b 61 2b 3e 89 3d 8e be 5f 15 77 be 25 de c2 3c
       0.16736428 -0.27781323 -0.24129246 0.023787567
0001c0 f1 12 e1 bd 94 c5 7d be f0 69 72 be a2 98 f9 3d
       -0.10989941 -0.24782401 -0.23673224 0.121873155
0001d0 0e 38 65 3c 75 1f 8a 3e 56 d1 1e 3e d0 1a 43 bd
       0.013990415 0.26977125 0.15509543 -0.047632992
0001e0 4a 45 50 3d df 9d 64 be d8 9c 89 3e 1f 7f 0d 3e
       0.05084733 -0.22325848 0.26877475 0.13818024
0001f0 65 2f 86 3e 59 20 57 be f9 4d b4 3a 06 72 0e 3d
       0.26208034 -0.21008433 0.0013756148 0.03477671
000200 85 93 89 3e 52 41 96 3e c9 d4 83 be ca 75 6e be
       0.2687036 0.2934671 -0.2574828 -0.2328712
000210 ab d0 c9 bc 51 e9 4e bc f4 f1 5d be 2c ed d6 bd
       -0.024635633 -0.012628869 -0.21674329 -0.10494456
000220 c5 e9 a2 3e bd 51 7e 3d 8e b4 35 be 74 8e 91 3e
       0.31818977 0.06208967 -0.17744657 0.28428996
000230 69 06 d7 3c 31 ad 02 3e d9 ce 95 3e d9 18 9a 3d
       0.026248174 0.1276138 0.29259375 0.075242706
000240 70 97 0f be 78 1f 50 3e de c5 b8 bd 29 ad bc bd
       -0.14022613 0.20324504 -0.09022115 -0.09212715
000250 c6 5f 8d be bb ec 9f 3e 8e 09 fb 3d 41 b1 90 3e
       -0.27612132 0.312353 0.12257682 0.28260234
000260 e6 fa af bc bc bd 05 bd d9 fc 44 be 9b 3d 6c 3d
       -0.021481942 -0.032651648 -0.19237079 0.05767594
000270 3c b7 e9 ba c0 57 b7 3c ec bc 91 3d a4 fe 01 3c
       -0.0017831097 0.02238071 0.07116112 0.007934246
000280 c8 8f 26 be d6 90 89 bd 22 0a 72 3e 35 2c aa 3d
       -0.16265786 -0.067170784 0.23636678 0.08309213
000290 06 98 04 3e 6b c8 62 3e f1 03 82 3e 7e 77 12 be
       0.12948617 0.22146766 0.25393632 -0.14303395
0002a0 08 e1 59 be 55 e9 84 be c0 41 1b be a8 f7 80 bd
       -0.21277249 -0.25959268 -0.151618 -0.06297237
0002b0 00 1e 0b 3e 1c 94 f0 3c 6c 28 2f be be 09 1a be
       0.13585663 0.029367499 -0.17105263 -0.15042779
0002c0 08 7b ff 3c e9 a8 07 be 69 46 00 be 7d ac 79 3b
       0.031186596 -0.13248028 -0.1252686 0.0038097196
0002d0 14 8c 68 3e 66 ff 6a be 2b 27 b2 3d f6 8f fe bb
       0.22709686 -0.2294899 0.08698877 -0.0077686263
0002e0 26 8e fa 3c d0 d4 71 be d0 12 1e 3d e4 ef 6f 3e
       0.03058536 -0.23616338 0.03859216 0.23431355
0002f0 b7 51 84 3e 76 05 b0 3c 9d 68 b5 bd a3 f5 50 3e
       0.25843593 0.021486979 -0.08857844 0.20406203
000300 c8 f4 63 3e f3 a7 f0 3d df fb 69 be 0f 67 e5 bd
       0.22261345 0.11750784 -0.22849987 -0.112012975
000310 41 99 3b be ae a7 9c bc ce 9e 63 3d fd 22 15 3d
       -0.1832018 -0.019122925 0.05557137 0.03641032
000320 d5 71 63 be 53 3f 85 3e fc b9 0c be 76 34 cc bd
       -0.22211392 0.26024875 -0.13742822 -0.09970944
000330 62 71 86 be 75 26 19 be 36 e7 6c be 79 2c f3 3c
       -0.2625838 -0.14956076 -0.23135075 0.029684292
000340 e6 9b 87 be 60 e2 76 bd df 3c 26 bc 81 6b 11 3e
       -0.2648613 -0.06027448 -0.010146349 0.14201166
000350 31 b8 36 3e 8d f9 a3 be b8 2b 9c be 65 12 38 3e
       0.17843701 -0.3202633 -0.30502105 0.17975767
000360 e4 2e 82 be 0a 95 aa bd 70 fd 19 3d 2d d7 1b be
       -0.254264 -0.08329208 0.037595212 -0.15218802
000370 d2 54 66 3e a0 5c 1a 3d 0a d5 1c 3e d6 7c a2 be
       0.22493294 0.03768599 0.15315643 -0.31735867
000380 ff 19 1f 3e a4 3f 88 3e d6 f3 04 bc 99 db 8b be
       0.1553726 0.26611054 -0.008114776 -0.27315977
000390 0b fe d6 bd 38 e3 61 be 63 c7 98 be 3b 7b 7f 3e
       -0.104976736 -0.22059333 -0.2983962 0.24949352
0003a0 60 e4 88 be 39 5d 21 3e 5b c8 21 be db ab 80 bd
       -0.26736736 0.15758218 -0.15799086 -0.06282779
0003b0 b3 86 2e 3d 9e 32 10 be 51 0c 7f be be 00 5a 3e
       0.042608928 -0.14081809 -0.24907042 0.21289346
0003c0 9e 51 a5 3d 1a 72 a1 be f9 97 67 bd 0e 96 4b 3e
       0.08072208 -0.31532365 -0.056541417 0.1988146
0003d0 f4 d4 42 be aa 97 6e 3e b1 4c 52 3c 10 8e 76 3e
       -0.19026548 0.23300043 0.0128356675 0.2407763
0003e0 d6 9c 08 3e f2 8c ed 3d d0 6d 71 3e 90 67 0d be
       0.13341078 0.11599149 0.23577046 -0.13809037
0003f0 59 fd 57 3d 13 7d 26 3e 87 3e ec bd a9 5d 4f be
       0.052731846 0.1625865 -0.11535364 -0.20250572

_impl.layers.2.linear.weight_g f4 [32, 1]
000000 d3 6f 83 3f e8 f5 79 3f 3a 5a 7d 3f 9f 85 7d 3f
       1.0268501 0.9764085 0.989658 0.99032015
000010 1f a3 7a 3f 0e af 84 3f 0f cd 76 3f 2e 62 7c 3f
       0.97905153 1.0365922 0.96406645 0.9858731
000020 58 a5 79 3f 99 9d 79 3f 66 83 7c 3f 0f e7 81 3f
       0.9751792 0.975061 0.98638 1.0148638
000030 e1 3e 82 3f 7b d6 7b 3f 98 9a 80 3f d2 a7 7d 3f
       1.0175439 0.98374146 1.0047178 0.990842
000040 8c d1 7f 3f bc 50 7b 3f b6 1c 81 3f 34 d7 85 3f
       0.9992912 0.98170066 1.0086887 1.04563
000050 5f 4e 83 3f 73 1d 82 3f 01 86 82 3f e7 bd 80 3f
       1.0258292 1.0165237 1.0197145 1.0057954
000060 91 5c 7b 3f 7c 77 7f 3f 4e 75 82 3f 75 0b 7c 3f
       0.9818812 0.99791694 1.0192049 0.9845498
000070 a8 05 7f 3f dd 0d 80 3f 00 97 7c 3f 25 85 7b 3f
       0.99618006 1.0004231 0.9866791 0.9825004

_impl.layers.2.linear.bias f4 [32]
000000 1d de 0a bc 57 16 11 3c ee 71 bf 3b 2b 15 a5 3a
       -0.0084758075 0.008855424 0.005842439 0.001259481
000010 db 78 04 bc ba 2e df 39 a5 47 e1 3b bf 59 0f bc
       -0.008085455 0.00042568689 0.006874996 -0.0087494245
000020 32 4f a3 bb 7c 1c e8 bb 5e 5d 7f 3b 80 91 37 3b
       -0.004983806 -0.0070834737 0.0038965563 0.0028010309
000030 bc 7f 28 3c 09 4f 64 bc bc 44 8c 3b 0a dd 2b 3c
       0.0102843605 -0.013934859 0.0042806547 0.010489712
000040 54 61 18 3c 52 c2 a9 3b a5 79 74 bc b6 06 0d 3d
       0.009300549 0.0051806355 -0.01492158 0.03443023
000050 cb 8c 8d 3b dc d5 b4 3b 35 ad 40 3b 2a 62 4b bc
       0.0043197623 0.005518658 0.0029400114 -0.012413541
000060 e6 14 7e bc c3 5a b7 3b e2 2c 12 3c 9e 03 c0 3b
       -0.015507912 0.0055955364 0.008921834 0.005859806
000070 71 83 05 3c 0e 64 7b ba c4 87 03 bc 4c 38 57 3b
       0.008149014 -0.00095897994 -0.0080279745 0.0032839952

_impl.final_layer.linear.weight f4 [1, 32]
000000 e8 9c a5 3e e7 f4 95 3b ef a9 57 bd 99 65 86 be
       0.32346272 0.004576314 -0.052652296 -0.26249388
000010 f2 80 e3 3d 2e 9b 61 3e e3 7b 87 be c2 52 c2 bd
       0.11108579 0.22031853 -0.26461706 -0.09488441
000020 30 0f 35 3e 02 80 8d be 58 c2 51 be 77 65 27 3e
       0.17681575 -0.27636725 -0.20484293 0.163473
000030 ed b6 d6 be f7 84 10 3b bb 23 94 bc 2a 5b 43 bd
       -0.41936436 0.002205191 -0.018083444 -0.047694363
000040 1d ad f6 bd 18 f6 a4 be 91 bf c2 3e 62 de b0 3e
       -0.120447375 -0.32219005 0.3803678 0.34544665
000050 3f 20 f6 bd e8 7b 17 3e 8b d1 c8 3e ce a7 80 3e
       -0.12017869 0.1479336 0.3922237 0.25128025
000060 df f9 71 be 94 5c dc bd 1a 46 e4 be 29 bb b3 be
       -0.23630475 -0.107598454 -0.44584733 -0.3510373
000070 e7 e6 ea bd 1a 2b 3b 3e d2 bf b2 3e 3c a0 c0 bd
       -0.114698224 0.1827816 0.34911972 -0.09405562
